antnet_weights.pth (torch, 2760 bytes, 4 tensors)

fc1.weight f4 [16, 5]
0.25893083 -0.25455886 -0.1649251 -0.22307709 0.13689083 0.0054243086 -0.27457535 -0.0739825
-0.39133552 0.17546938 0.53433734 -0.30538374 0.48674098 -0.04283598 0.038899213 0.5237308
0.06383472 -0.016480474 -0.15473865 0.005660777 0.29935515 0.046202544 0.3889843 -0.14752114
-0.08169141 0.49209335 0.048775706 -0.23573343 0.42024493 -0.1107087 0.015686499 0.062348932
0.092235014 0.41917875 -0.42328376 -0.3761171 0.25942928 0.15453176 0.37838572 -0.3052538
-0.038998157 -0.050713003 0.02657944 -0.20418048 -0.21014701 0.23623195 0.09985358 -0.37529865
-0.19229613 0.13703452 -0.32463136 0.13739985 0.3678211 -0.35302868 0.37436837 0.23513126
-0.3710876 0.014473463 -0.46772692 -0.37794122 0.1262167 -0.27782938 0.33918267 0.10253048
0.55917645 0.13221906 0.35245514 0.3482586 -0.0069773463 -0.32718235 -0.12887967 -0.14046597
0.34772846 -0.31087738 0.3522622 -0.19508123 -0.43224955 -0.009619474 -0.0072673857 0.35783875
00000000: 9592 843e 8a55 82be 20e2 28be 526e 64be
00000010: 1c2d 0c3e 66be b13b 2495 8cbe 2384 97bd
00000020: 215d c8be 3fae 333e 55ca 083f 425b 9cbe
00000030: 1d36 f93e c874 2fbd c854 1f3d 3913 063f
00000040: c7bb 823d 0f02 87bc cf73 1ebe 0a7e b93b
00000050: 1445 993e e13e 3d3d f328 c73e c80f 17be
00000060: d34d a7bd a9f3 fb3e 09c9 473d 1b64 71be
00000070: 582a d73e 3ebb e2bd f980 803c 9861 7f3d
00000080: b6e5 bc3d 999e d63e a6b8 d8be 6c92 c0be
00000090: ead3 843e 933d 1e3e c6bb c13e 3a4a 9cbe
000000a0: 88bc 1fbd 70b8 4fbd 20bd d93c b014 51be
000000b0: c730 57be cae6 713e 0980 cc3d 2527 c0be
000000c0: 47e9 44be c752 0c3e 1536 a6be 8cb2 0c3e
000000d0: 0c53 bc3e 2dc0 b4be 36ad bf3e 40c6 703e
000000e0: 32ff bdbe 1b22 6d3c e779 efbe 8381 c1be
000000f0: f33e 013e a73f 8ebe 5aa9 ad3e 80fb d13d
00000100: 3026 0f3f 6f64 073e 0075 b43e f44e b23e
00000110: 39a2 e4bb 7284 a7be 08f9 03be 50d6 0fbe
00000120: 7709 b23e 522b 9fbe b65b b43e 60c3 47be
00000130: d04f ddbe 009b 1dbc 4023 eebb a436 b73e

fc1.bias f4 [16]
-0.12646158 0.11958849 0.059775595 0.38181996 -0.31510898 0.07080059 0.21927609 0.08517552
-0.058834136 0.00517244 -0.22058102 0.13114645 -0.022414414 -0.40647337 0.35536465 0.033346385
00000000: 257f 01be cfea f43d 41d7 743d e87d c33e
00000010: f755 a1be e6ff 903d e989 603e 8170 ae3d
00000020: 10fc 70bd 927d a93b fedf 61be 414b 063e
00000030: 6f9e b7bc 471d d0be 5bf2 b53e 3896 083d

fc2.weight f4 [4, 16]
0.113305636 -0.13166541 0.3292463 0.2582788 0.34218827 0.30657023 0.24665993 -0.18862695
0.11044529 0.06891327 0.19687393 0.19570018 0.21139407 -0.0067714993 -0.031615708 0.24094632
-0.066010796 -0.123057686 0.24546829 -0.10343637 -0.076113686 -0.13376164 0.014071359 0.18894048
-0.16813216 0.20942499 -0.057260603 -0.19118546 -0.18211243 -0.18186732 -0.1224843 -0.16284418
-0.16363157 0.062689535 -0.28583974 -0.069673955 0.117964074 0.074163236 0.1375172 -0.04804693
0.19316658 -0.07464959 0.08441934 0.1484191 -0.0637041 -0.10410918 0.044574976 0.15872827
0.29916623 0.1174217 -0.13773125 0.20713677 0.28024003 0.22691 0.119083956 -0.08858348
0.0911164 0.30072746 0.07062811 -0.14946629 0.28154498 0.18304884 -0.17892997 0.0009446144
00000000: c90c e83d 4cd3 06be f992 a83e 1e3d 843e
00000010: 4d33 af3e c6f6 9c3e 6c94 7c3e 6c27 41be
00000020: 2431 e23d 6722 8d3d 5299 493e a165 483e
00000030: b077 583e 74e3 ddbb 797f 01bd a2ba 763e
00000040: ab30 87bd ab05 fcbd 0a5c 7b3e 73d6 d3bd
00000050: 7ee1 9bbd d0f8 08be 8f8b 663c 9d79 413e
00000060: d62a 2cbe 8173 563e 188a 6abd 1fc6 43be
00000070: ae7b 3abe 6d3b 3abe 0cd9 fabd a0c0 26be
00000080: 098f 27be 5f63 803d 9659 92be 38b1 8ebd
00000090: 2697 f13d e5e2 973d 4fd1 0c3e dccc 44bd
000000a0: 76cd 453e e2e1 98bd 0ce4 ac3d 2dfb 173e
000000b0: 4c77 82bd 3237 d5bd 4094 363d aa89 223e
000000c0: 512c 993e ca7a f03d 6c09 0dbe a91b 543e
000000d0: 9f7b 8f3e 185b 683e 4ae2 f33d 416b b5bd
000000e0: 3c9b ba3d f3f8 993e 78a5 903d b10d 19be
000000f0: aa26 903e 2871 3b3e 6b39 37be 00a0 773a

fc2.bias f4 [4]
0.03879257 -0.030270342 0.09137786 0.23403485
00000000: f5e4 1e3d 82f9 f7bc 5124 bb3d d5a6 6f3e
