best_antnet_ga_global.pth (torch, 2816 bytes, 4 tensors)

fc1.weight f4 [16, 5]
0	0x3dd04ad6	0.10170524
1	0x3e06b2e9	0.13154186
2	0xbe849d74	-0.25901377
3	0xbe73a55d	-0.2379355
4	0x3c83c2b8	0.01608406
5	0x3d934a7c	0.07191941
6	0xbb4fa210	-0.003168229
7	0xbd8c936a	-0.068640545
8	0x3e283336	0.16425785
9	0x3e198190	0.1499083
10	0x3e6ef14c	0.23334235
11	0xbe612456	-0.21986517
12	0x3cd152fe	0.02555227
13	0x3d09c840	0.03363824
14	0xbd78febc	-0.06078981
15	0x3dd4086c	0.10353169
16	0x3dc8f5aa	0.09812482
17	0x3e6484c9	0.22316279
18	0x3e0bbf6a	0.13647237
19	0x3e0014b5	0.12507899
20	0xbca686f4	-0.020328023
21	0x3dc40f54	0.09573236
22	0x3d312370	0.043246686
23	0xbe2ee044	-0.17077738
24	0xbe8e9283	-0.27846155
25	0xbe2d7c37	-0.16941915
26	0x3e907c1a	0.28219682
27	0xbdc20fe7	-0.094756894
28	0xbdd77555	-0.10520426
29	0x3f02cf9b	0.5109803
30	0x3ecf87bb	0.40533242
31	0xbe83f4ce	-0.2577271
32	0x3e1df4d8	0.15425432
33	0x3d8bec10	0.06832135
34	0xbea185e6	-0.3154747
35	0xbd6a6f82	-0.05723525
36	0x3e4278b0	0.18991351
37	0xbdc99ac2	-0.09843971
38	0xbdb3ab84	-0.087729484
39	0xbe19b96e	-0.15012142
40	0xbdf2746a	-0.118386105
41	0x3a6d8860	0.0009061154
42	0xbeb7e324	-0.35915482
43	0xbd03a47e	-0.032139294
44	0xbc1fd9ef	-0.009756549
45	0x3ec3d379	0.38247278
46	0xba7f4180	-0.0009737238
47	0xbec417a0	-0.38299274
48	0x3e8c5aba	0.2741297
49	0xbd767b40	-0.060176134
50	0xbd62f330	-0.055407703
51	0x3e882908	0.26593804
52	0xbe6f30c0	-0.2335844
53	0xbdc833ca	-0.09775503
54	0x3e4bcf0c	0.19903201
55	0x3d489756	0.04897245
56	0x3e7636d8	0.24044359
57	0xbd663ba3	-0.056209218
58	0xbe6ee94e	-0.23331186
59	0x3b53b7f0	0.003230568
60	0x3e819664	0.2531005
61	0xbd6b07fa	-0.057380654
62	0xbe040920	-0.12894106
63	0x3e3d5b34	0.18491822
64	0xbe6f6e3d	-0.23381896
65	0x3e275d15	0.16344102
66	0x3d887fd4	0.06665006
67	0xbe90c30e	-0.28273815
68	0xbe2caccb	-0.1686279
69	0xbe583ea7	-0.2111765
70	0x3cb52814	0.022113837
71	0xbdb95329	-0.09049065
72	0x3e4d3928	0.20041335
73	0x3b5aff50	0.0033416338
74	0xbe49b0a2	-0.19696286
75	0xbe8de0c3	-0.27710542
76	0xbc9bd6dd	-0.019023353
77	0x3dbd6d55	0.09249369
78	0x3d81146c	0.06302723
79	0xbeacaaae	-0.33723968

fc1.bias f4 [16]
0	0x3e1c2137	0.15247045
1	0xbdcb2c1e	-0.09920524
2	0x3e2fc772	0.17165926
3	0x3e3140cb	0.17309873
4	0x3da1e627	0.07905226
5	0x3b8e0d68	0.0043350942
6	0xbecfab9b	-0.40560612
7	0x3d8304a2	0.06397368
8	0x3e6f139a	0.23347321
9	0x3d351e3b	0.044218283
10	0x3e305635	0.17220385
11	0x3e6dcd0f	0.23222755
12	0x3d105eea	0.035246767
13	0xbe1ecb0d	-0.15507145
14	0xbe835ce6	-0.25656813
15	0xbe386c35	-0.18010028

fc2.weight f4 [4, 16]
0	0x3d9d891d	0.07692168
1	0x3dbe136b	0.092810474
2	0x3e1227a9	0.14272942
3	0x3e321119	0.17389335
4	0x3e490412	0.19630459
5	0x3dfc4c88	0.12319285
6	0xbd6943d3	-0.056949448
7	0xbd804cf3	-0.06264677
8	0xbeaf0b49	-0.34188297
9	0x3eab27c6	0.33428782
10	0x3e8103d6	0.2519824
11	0x3d5f555f	0.054524776
12	0x3d91413d	0.07092521
13	0x3dc0d5f3	0.094158076
14	0x3dc9f9d8	0.09862107
15	0x3e29fe55	0.16600926
16	0x3c840e21	0.016120018
17	0x3d9c9896	0.07646291
18	0xbe38e7dd	-0.18057199
19	0xbde8f4e8	-0.11374837
20	0x3dc3ed14	0.095667034
21	0x3d6d84ff	0.057988163
22	0xbe05c3e8	-0.13063014
23	0x3cfdb9cc	0.030972384
24	0x3d85b720	0.06529069
25	0xbe765fee	-0.24060032
26	0x3ced6136	0.028977018
27	0x3ea6660a	0.32499725
28	0xbdc221ac	-0.09479079
29	0x3ba4b070	0.005025916
30	0xbbcb5044	-0.006204637
31	0x3e053586	0.13008699
32	0xbe0ff0e5	-0.14056738
33	0x3e2d99e8	0.16953242
34	0x3e84177f	0.25799176
35	0xbe08ca26	-0.13358364
36	0xbde05ece	-0.109555826
37	0xbd4c5a2e	-0.04989069
38	0x3d25e61a	0.040502645
39	0xbd749ffc	-0.059722885
40	0x3dca31ab	0.09872755
41	0xbd94e4be	-0.072701916
42	0xbd478e54	-0.04871972
43	0xbc24f49c	-0.010068085
44	0x3e1198e9	0.14218487
45	0x3d60d37a	0.05488918
46	0xbc9da6e2	-0.019244615
47	0xbe3c62d9	-0.18397082
48	0xbd877280	-0.06613636
49	0x3d4117e3	0.04714192
50	0xbdfe7cd0	-0.1242615
51	0xbd36dc70	-0.04464382
52	0xbcf0d6a0	-0.029399216
53	0x3dbfa5d2	0.093577996
54	0xbe35b89a	-0.17746201
55	0xbc1e072c	-0.009645265
56	0xbdbf47e7	-0.09339886
57	0xbe2f2573	-0.1710413
58	0xbd711f5d	-0.0588678
59	0x3e03506e	0.1282365
60	0x3d973b52	0.07384361
61	0x3d5c9908	0.05385688
62	0x3d5b0962	0.053475745
63	0xbd89597c	-0.06706521

fc2.bias f4 [4]
0	0xbe23d0ba	-0.15997592
1	0x3e145ef4	0.14489347
2	0x3d9f9e24	0.07793835
3	0x3ddf62e8	0.10907537
