best_antnet_ga.pth (torch, 2760 bytes, 4 tensors)

fc1.weight f4 [16, 5]
0	0x3e5bdcaa	0.21470895
1	0x3e852fd9	0.26013067
2	0x3e095fbc	0.13415426
3	0xbe70fa6e	-0.23533031
4	0xbe6f4134	-0.23364717
5	0xbd970419	-0.073738284
6	0xbef77ac4	-0.4833585
7	0x3e32de06	0.17467508
8	0x3e59f3e0	0.21284437
9	0x3e6e64a6	0.23280582
10	0xbdbfabfb	-0.093589745
11	0xbea398b9	-0.31952456
12	0xbdf27eac	-0.11840567
13	0xbd5348fe	-0.051583283
14	0x3ddcb927	0.107775025
15	0x3cffc911	0.031223806
16	0x3dcf4703	0.10120966
17	0x3e95e31a	0.29274827
18	0xbcdd5aec	-0.027020894
19	0x3e1335b5	0.14375956
20	0x3d35fab0	0.044428527
21	0xbd33427d	-0.04376458
22	0x3cd18b4a	0.025579114
23	0xbe0b286b	-0.13589637
24	0xbe098192	-0.13428333
25	0xbeb2885d	-0.34869662
26	0xbd813019	-0.06308002
27	0xbeb94a56	-0.36189526
28	0x3d41b65e	0.04729306
29	0x3e1d471e	0.1535916
30	0x3e08e3e0	0.13368177
31	0xbd7aa983	-0.061196815
32	0xbe198da0	-0.14995432
33	0xbeadca74	-0.33943522
34	0x3be37480	0.006941378
35	0x3e19d87b	0.15023987
36	0x3e858beb	0.2608331
37	0xbcca8e5c	-0.024726085
38	0x3de24923	0.11049106
39	0xbd06fd5c	-0.032956466
40	0xbdce3b22	-0.100698724
41	0x3e6f722f	0.23383401
42	0x3e97a081	0.29614642
43	0x3e7088e9	0.23489727
44	0x3e2054f6	0.1565741
45	0xbe39e110	-0.18152261
46	0x3e0a9548	0.13533509
47	0xbe3a1685	-0.18172653
48	0xbcd8622e	-0.026414003
49	0xbe3bf253	-0.18354158
50	0x3d49c3df	0.049259063
51	0xbe275f0c	-0.16344851
52	0xbeaf7377	-0.3426778
53	0xbc9d1e9c	-0.019179635
54	0xbe615e4a	-0.22008625
55	0x3edccca0	0.43124866
56	0xbe38d902	-0.18051532
57	0xbe2afc7a	-0.16697875
58	0x3e295ea6	0.16540012
59	0x3bae77d4	0.005324343
60	0x3db6709c	0.08908197
61	0xbdfa927d	-0.12234972
62	0xbe20020e	-0.15625784
63	0x3e27a311	0.16370799
64	0xbe4cfc27	-0.20018063
65	0x3d8ddb45	0.06926588
66	0xbe1f2884	-0.15542799
67	0x3ea3e6e0	0.3201208
68	0xbe9e39bf	-0.30903432
69	0xbeb7099a	-0.35749513
70	0xbd478994	-0.04871519
71	0xbe4f07bf	-0.20217799
72	0x3d6e8e6f	0.058241304
73	0x3d02be1e	0.03191959
74	0x3eae7cad	0.34079495
75	0x3a8d9660	0.0010802262
76	0xbe5ae6c9	-0.213771
77	0xbd16c631	-0.036810104
78	0xbd089ccb	-0.033352654
79	0xbdc1f820	-0.09471154

fc1.bias f4 [16]
0	0xbe02f2c3	-0.12787919
1	0x3e8ae92e	0.27131027
2	0xbda9ed00	-0.08297157
3	0xbe11e733	-0.14248352
4	0xbe68e5c1	-0.22743894
5	0x3dbba2dc	0.09161922
6	0x3de6c95d	0.11268876
7	0x3dd65514	0.10465446
8	0x3e216b87	0.15763675
9	0xbd452c8c	-0.048138186
10	0x3cad3afa	0.021146286
11	0xbda5c6d4	-0.08094564
12	0x3e89de47	0.26927397
13	0x3e0e8f91	0.13921954
14	0xbd885804	-0.06657413
15	0xbe824ada	-0.25447732

fc2.weight f4 [4, 16]
0	0xbdeafee3	-0.11474397
1	0x3bdf12d0	0.0068076625
2	0xbe0ef2d4	-0.13959819
3	0x3bdb6598	0.0066954605
4	0x3de908c1	0.11378623
5	0x3daecba4	0.08534935
6	0xbe810be9	-0.252044
7	0x3e875eb9	0.26439455
8	0x3e1d1dc1	0.15343381
9	0xbe352c35	-0.17692645
10	0x3c3d6a70	0.011561021
11	0x3d669e70	0.05630344
12	0xbe069dcf	-0.13146137
13	0x3dd34dac	0.10317549
14	0x3e2e04b2	0.16993979
15	0xbe05bde7	-0.13060723
16	0xbe09118d	-0.13385601
17	0x3c34d548	0.011037178
18	0xbe55dd53	-0.2088521
19	0x3d2de2d0	0.042452633
20	0x3de6b2c3	0.11264565
21	0x3b0ed088	0.0021791775
22	0x3e12a373	0.14320163
23	0xbdb2fc2e	-0.08739506
24	0x3e9fbc90	0.3119855
25	0xbe639ad1	-0.22227027
26	0xbc83e859	-0.016102003
27	0xbdd16d9f	-0.10225987
28	0xbde1830e	-0.11011325
29	0x3d9eda2e	0.07756458
30	0xbe05fa50	-0.13083768
31	0xbe4bac67	-0.19889985
32	0xbc324098	-0.010879658
33	0xbc84c3c2	-0.016206626
34	0xbd3289e6	-0.04358854
35	0xbdf67a15	-0.12035004
36	0xbe775992	-0.24155262
37	0x3de62338	0.11237186
38	0x3e1fb5d6	0.15596709
39	0xbe951fbc	-0.29125774
40	0xbd579a9c	-0.05263768
41	0x3cae5a1b	0.0212832
42	0xbe9dab90	-0.30794954
43	0x3e8fb9a9	0.28071335
44	0xbe309518	-0.17244375
45	0xbd380336	-0.044924937
46	0xbe0ecd68	-0.13945544
47	0xbc3c6b9e	-0.011500267
48	0xbde30cfc	-0.11086461
49	0x3dd3ecb4	0.10347882
50	0x3eb28676	0.3486821
51	0xbe1a5edc	-0.15075248
52	0x3e39fb05	0.18162163
53	0x3da47a71	0.08031166
54	0xbc4dce28	-0.0125613585
55	0x3d0d839d	0.034549344
56	0xbe00c742	-0.12576011
57	0x3e3892ce	0.18024752
58	0x3d8333d0	0.06406367
59	0xbc9c9be4	-0.019117303
60	0xbda929c4	-0.08259919
61	0x3d3e7d43	0.046506178
62	0x3e860636	0.26176614
63	0x3d9e12d0	0.07718432

fc2.bias f4 [4]
0	0xbdac904f	-0.08425962
1	0x3da82084	0.08209327
2	0xbd758e84	-0.059950367
3	0xbd918654	-0.07105699
